…
The number of items: 10673
Average actions of items: 21.718515742128936
The number of inters: 231780
The sparsity of the dataset: 99.91064647449186%
Remain Fields: ['user_id', 'item_id', 'timestamp']
18 Sep 22:13    INFO  [Training]: train_batch_size = [1024] train_neg_sample_args: [{'distribution': 'none', 'sample_num': 'none', 'alpha': 'none', 'dynamic': False, 'candidate_num': 0}]
18 Sep 22:13    INFO  [Evaluation]: eval_batch_size = [2048] eval_args: [{'split': {'LS': 'valid_and_test'}, 'order': 'TO', 'group_by': 'user', 'mode': {'valid': 'full', 'test': 'full'}}]
18 Sep 22:13    INFO  HM4SR(
  (item_embedding): Embedding(10673, 64, padding_idx=0)
  (position_embedding): Embedding(50, 64)
  (item_seq): TransformerEncoder(
    (layer): ModuleList(
      (0): TransformerLayer(
        (multi_head_attention): MultiHeadAttention(
          (query): Linear(in_features=64, out_features=64, bias=True)
          (key): Linear(in_features=64, out_features=64, bias=True)
          (value): Linear(in_features=64, out_features=64, bias=True)
          (softmax): Softmax(dim=-1)
          (attn_dropout): Dropout(p=0.5, inplace=False)
          (dense): Linear(in_features=64, out_features=64, bias=True)
          (LayerNorm): LayerNorm((64,), eps=1e-12, elementwise_affine=True)
          (out_dropout): Dropout(p=0.5, inplace=False)
        )
        (feed_forward): FeedForward(
          (dense_1): Linear(in_features=64, out_features=256, bias=True)
          (dense_2): Linear(in_features=256, out_features=64, bias=True)
          (LayerNorm): LayerNorm((64,), eps=1e-12, elementwise_affine=True)
          (dropout): Dropout(p=0.5, inplace=False)
        )
      )
      (1): TransformerLayer(
        (multi_head_attention): MultiHeadAttention(
          (query): Linear(in_features=64, out_features=64, bias=True)
          (key): Linear(in_features=64, out_features=64, bias=True)
          (value): Linear(in_features=64, out_features=64, bias=True)
          (softmax): Softmax(dim=-1)
          (attn_dropout): Dropout(p=0.5, inplace=False)
          (dense): Linear(in_features=64, out_features=64, bias=True)
          (LayerNorm): LayerNorm((64,), eps=1e-12, elementwise_affine=True)
          (out_dropout): Dropout(p=0.5, inplace=False)
        )
        (feed_forward): FeedForward(
          (dense_1): Linear(in_features=64, out_features=256, bias=True)
          (dense_2): Linear(in_features=256, out_features=64, bias=True)
          (LayerNorm): LayerNorm((64,), eps=1e-12, elementwise_affine=True)
          (dropout): Dropout(p=0.5, inplace=False)
        )
      )
    )
  )
  (txt_seq): TransformerEncoder(
    (layer): ModuleList(
      (0): TransformerLayer(
        (multi_head_attention): MultiHeadAttention(
          (query): Linear(in_features=64, out_features=64, bias=True)
          (key): Linear(in_features=64, out_features=64, bias=True)
          (value): Linear(in_features=64, out_features=64, bias=True)
          (softmax): Softmax(dim=-1)
          (attn_dropout): Dropout(p=0.5, inplace=False)
          (dense): Linear(in_features=64, out_features=64, bias=True)
          (LayerNorm): LayerNorm((64,), eps=1e-12, elementwise_affine=True)
          (out_dropout): Dropout(p=0.5, inplace=False)
        )
        (feed_forward): FeedForward(
          (dense_1): Linear(in_features=64, out_features=256, bias=True)
          (dense_2): Linear(in_features=256, out_features=64, bias=True)
          (LayerNorm): LayerNorm((64,), eps=1e-12, elementwise_affine=True)
          (dropout): Dropout(p=0.5, inplace=False)
        )
      )
      (1): TransformerLayer(
        (multi_head_attention): MultiHeadAttention(
          (query): Linear(in_features=64, out_features=64, bias=True)
          (key): Linear(in_features=64, out_features=64, bias=True)
          (value): Linear(in_features=64, out_features=64, bias=True)
          (softmax): Softmax(dim=-1)
          (attn_dropout): Dropout(p=0.5, inplace=False)
          (dense): Linear(in_features=64, out_features=64, bias=True)
          (LayerNorm): LayerNorm((64,), eps=1e-12, elementwise_affine=True)
          (out_dropout): Dropout(p=0.5, inplace=False)
        )
        (feed_forward): FeedForward(
          (dense_1): Linear(in_features=64, out_features=256, bias=True)
          (dense_2): Linear(in_features=256, out_features=64, bias=True)
          (LayerNorm): LayerNorm((64,), eps=1e-12, elementwise_affine=True)
          (dropout): Dropout(p=0.5, inplace=False)
        )
      )
    )
  )
  (img_seq): TransformerEncoder(
    (layer): ModuleList(
      (0): TransformerLayer(
        (multi_head_attention): MultiHeadAttention(
          (query): Linear(in_features=64, out_features=64, bias=True)
          (key): Linear(in_features=64, out_features=64, bias=True)
          (value): Linear(in_features=64, out_features=64, bias=True)
          (softmax): Softmax(dim=-1)
          (attn_dropout): Dropout(p=0.5, inplace=False)
          (dense): Linear(in_features=64, out_features=64, bias=True)
          (LayerNorm): LayerNorm((64,), eps=1e-12, elementwise_affine=True)
          (out_dropout): Dropout(p=0.5, inplace=False)
        )
        (feed_forward): FeedForward(
          (dense_1): Linear(in_features=64, out_features=256, bias=True)
          (dense_2): Linear(in_features=256, out_features=64, bias=True)
          (LayerNorm): LayerNorm((64,), eps=1e-12, elementwise_affine=True)
          (dropout): Dropout(p=0.5, inplace=False)
        )
      )
      (1): TransformerLayer(
        (multi_head_attention): MultiHeadAttention(
          (query): Linear(in_features=64, out_features=64, bias=True)
          (key): Linear(in_features=64, out_features=64, bias=True)
          (value): Linear(in_features=64, out_features=64, bias=True)
          (softmax): Softmax(dim=-1)
          (attn_dropout): Dropout(p=0.5, inplace=False)
          (dense): Linear(in_features=64, out_features=64, bias=True)
          (LayerNorm): LayerNorm((64,), eps=1e-12, elementwise_affine=True)
          (out_dropout): Dropout(p=0.5, inplace=False)
        )
        (feed_forward): FeedForward(
          (dense_1): Linear(in_features=64, out_features=256, bias=True)
          (dense_2): Linear(in_features=256, out_features=64, bias=True)
          (LayerNorm): LayerNorm((64,), eps=1e-12, elementwise_affine=True)
          (dropout): Dropout(p=0.5, inplace=False)
        )
      )
    )
  )
  (item_ln): LayerNorm((64,), eps=1e-12, elementwise_affine=True)
  (txt_ln): LayerNorm((64,), eps=1e-12, elementwise_affine=True)
  (img_ln): LayerNorm((64,), eps=1e-12, elementwise_affine=True)
  (txt_projection): Linear(in_features=768, out_features=64, bias=True)
  (img_projection): Linear(in_features=768, out_features=64, bias=True)
  (dropout): Dropout(p=0.5, inplace=False)
  (loss_fct): CrossEntropyLoss()
  (time_moe): Temporal_MoE_C(
    (gate): Linear(in_features=128, out_features=4, bias=True)
    (absolute_w): Linear(in_features=1, out_features=64, bias=True)
    (absolute_m): Linear(in_features=64, out_features=64, bias=True)
    (time_embedding): Embedding(2871, 64)
  )
  (txt_projection_psuedo): Linear(in_features=768, out_features=64, bias=True)
  (img_projection_psuedo): Linear(in_features=768, out_features=64, bias=True)
  (time_embedding_psuedo): Linear(in_features=64, out_features=64, bias=True)
  (txt_embedding): Embedding(10673, 768)
  (img_embedding): Embedding(10673, 768)
  (cat_embedding): Embedding(10673, 192)
  (cat_linear): Linear(in_features=192, out_features=192, bias=True)
  (cat_criterion): BCEWithLogitsLoss()
  (start_moe): Align_MoE(
    (gate_txt): Linear(in_features=64, out_features=4, bias=True)
    (gate_img): Linear(in_features=64, out_features=4, bias=True)
    (gate_id): Linear(in_features=64, out_features=4, bias=True)
    (expert): ModuleList(
      (0): Linear(in_features=192, out_features=192, bias=True)
      (1): Linear(in_features=192, out_features=192, bias=True)
      (2): Linear(in_features=192, out_features=192, bias=True)
      (3): Linear(in_features=192, out_features=192, bias=True)
    )
  )
  (placeholder_txt): Linear(in_features=128, out_features=64, bias=True)
  (placeholder_img): Linear(in_features=128, out_features=64, bias=True)
  (placeholder_id): Linear(in_features=64, out_features=64, bias=True)
)
Trainable parameters: 1582867
18 Sep 22:13    INFO  FLOPs: 1076567992.0
18 Sep 22:14    INFO  epoch 0 training [time: 64.82s, train loss: 3575.58560]
18 Sep 22:14    INFO  epoch 0 evaluating [time: 2.97s, valid_score: 0.026940]
18 Sep 22:14    INFO  valid result: 
hit@5 : 0.02275    hit@10 : 0.03777    hit@20 : 0.06468    hit@50 : 0.12488    ndcg@5 : 0.01538    ndcg@10 : 0.02019    ndcg@20 : 0.02694    ndcg@50 : 0.03878    precision@5 : 0.00455    precision@10 : 0.00378    precision@20 : 0.00323    precision@50 : 0.0025    mrr@5 : 0.01297    mrr@10 : 0.01493    mrr@20 : 0.01675    mrr@50 : 0.0186
…
